…
To enable them in other operations, rebuild TensorFlow with the appropriate compiler flags.
2023-04-05 03:16:51.619740: I tensorflow/core/common_runtime/gpu/gpu_device.cc:1616] Created device /job:localhost/replica:0/task:0/device:GPU:0 with 5965 MB memory:  -> device: 0, name: NVIDIA GeForce RTX 2070 SUPER, pci bus id: 0000:01:00.0, compute capability: 7.5
Model: "model"
_________________________________________________________________
 Layer (type)                Output Shape              Param #
=================================================================
 input_1 (InputLayer)        [(None, 256, 256, 1)]     0

 conv2d (Conv2D)             (None, 256, 256, 64)      640

 conv2d_1 (Conv2D)           (None, 128, 128, 64)      36928

 batch_normalization (BatchN  (None, 128, 128, 64)     256
 ormalization)

 conv2d_2 (Conv2D)           (None, 128, 128, 128)     73856

 conv2d_3 (Conv2D)           (None, 64, 64, 128)       147584

 batch_normalization_1 (Batc  (None, 64, 64, 128)      512
 hNormalization)

 conv2d_4 (Conv2D)           (None, 64, 64, 256)       295168

 conv2d_5 (Conv2D)           (None, 64, 64, 256)       590080

 conv2d_6 (Conv2D)           (None, 32, 32, 256)       590080

 batch_normalization_2 (Batc  (None, 32, 32, 256)      1024
 hNormalization)

 conv2d_7 (Conv2D)           (None, 32, 32, 512)       1180160

 conv2d_8 (Conv2D)           (None, 32, 32, 512)       2359808

 conv2d_9 (Conv2D)           (None, 32, 32, 512)       2359808

 batch_normalization_3 (Batc  (None, 32, 32, 512)      2048
 hNormalization)

 conv2d_10 (Conv2D)          (None, 32, 32, 512)       2359808

 conv2d_11 (Conv2D)          (None, 32, 32, 512)       2359808

 conv2d_12 (Conv2D)          (None, 32, 32, 512)       2359808

 batch_normalization_4 (Batc  (None, 32, 32, 512)      2048
 hNormalization)

 conv2d_13 (Conv2D)          (None, 32, 32, 512)       2359808

 conv2d_14 (Conv2D)          (None, 32, 32, 512)       2359808

 conv2d_15 (Conv2D)          (None, 32, 32, 512)       2359808

 batch_normalization_5 (Batc  (None, 32, 32, 512)      2048
 hNormalization)

 conv2d_16 (Conv2D)          (None, 32, 32, 512)       2359808

 conv2d_17 (Conv2D)          (None, 32, 32, 512)       2359808

 conv2d_18 (Conv2D)          (None, 32, 32, 512)       2359808

 batch_normalization_6 (Batc  (None, 32, 32, 512)      2048
 hNormalization)

 conv2d_transpose (Conv2DTra  (None, 64, 64, 256)      2097408
 nspose)

 conv2d_19 (Conv2D)          (None, 64, 64, 256)       590080

 conv2d_20 (Conv2D)          (None, 64, 64, 256)       590080

 conv2d_21 (Conv2D)          (None, 64, 64, 313)       80441

 conv2d_22 (Conv2D)          (None, 64, 64, 2)         626

 up_sampling2d (UpSampling2D  (None, 256, 256, 2)      0
 )

=================================================================
Total params: 32,241,003
Trainable params: 32,236,011
Non-trainable params: 4,992
_________________________________________________________________
Всего найдено 76844 изображений
Начинаем обучение...
Epoch 1/250
1200/1200 [==============================] - 2539s 2s/step - loss: 0.0165 - accuracy: 0.6383
Epoch 2/250
1200/1200 [==============================] - 2157s 2s/step - loss: 0.0153 - accuracy: 0.6547
…
